…
│ (InputLayer)        │ 3)                │            │                   │
├─────────────────────┼───────────────────┼────────────┼───────────────────┤
│ nir_image           │ (None, 512, 612,  │          0 │ -                 │
│ (InputLayer)        │ 1)                │            │                   │
├─────────────────────┼───────────────────┼────────────┼───────────────────┤
│ lidar_data          │ (None, 100, 300,  │          0 │ -                 │
│ (InputLayer)        │ 3)                │            │                   │
├─────────────────────┼───────────────────┼────────────┼───────────────────┤
│ seeding_date        │ (None, 1)         │          0 │ -                 │
│ (InputLayer)        │                   │            │                   │
├─────────────────────┼───────────────────┼────────────┼───────────────────┤
│ image_date          │ (None, 1)         │          0 │ -                 │
│ (InputLayer)        │                   │            │                   │
├─────────────────────┼───────────────────┼────────────┼───────────────────┤
│ weather_data        │ (None, 8, 8, 146) │          0 │ -                 │
│ (InputLayer)        │                   │            │                   │
├─────────────────────┼───────────────────┼────────────┼───────────────────┤
│ rgb (Functional)    │ (None, 32)        │      6,776 │ rgb_image[0][0]   │
├─────────────────────┼───────────────────┼────────────┼───────────────────┤
│ nir (Functional)    │ (None, 32)        │      6,488 │ nir_image[0][0]   │
├─────────────────────┼───────────────────┼────────────┼───────────────────┤
│ lidar (Functional)  │ (None, 64)        │     24,048 │ lidar_data[0][0]  │
├─────────────────────┼───────────────────┼────────────┼───────────────────┤
│ seeding             │ (None, 256)       │     41,472 │ seeding_date[0][… │
│ (Functional)        │                   │            │                   │
├─────────────────────┼───────────────────┼────────────┼───────────────────┤
│ image_date_branch   │ (None, 256)       │     41,472 │ image_date[0][0]  │
│ (Functional)        │                   │            │                   │
├─────────────────────┼───────────────────┼────────────┼───────────────────┤
│ weather             │ (None, 128)       │    172,448 │ weather_data[0][… │
│ (Functional)        │                   │            │                   │
├─────────────────────┼───────────────────┼────────────┼───────────────────┤
│ concatenate         │ (None, 768)       │          0 │ rgb[0][0],        │
│ (Concatenate)       │                   │            │ nir[0][0],        │
│                     │                   │            │ lidar[0][0],      │
│                     │                   │            │ seeding[0][0],    │
│                     │                   │            │ image_date_branc… │
│                     │                   │            │ weather[0][0]     │
├─────────────────────┼───────────────────┼────────────┼───────────────────┤
│ dense_32 (Dense)    │ (None, 512)       │    393,728 │ concatenate[0][0] │
├─────────────────────┼───────────────────┼────────────┼───────────────────┤
│ layer_normalization │ (None, 512)       │      1,024 │ dense_32[0][0]    │
│ (LayerNormalizatio… │                   │            │                   │
├─────────────────────┼───────────────────┼────────────┼───────────────────┤
│ dropout (Dropout)   │ (None, 512)       │          0 │ layer_normalizat… │
├─────────────────────┼───────────────────┼────────────┼───────────────────┤
│ dense_33 (Dense)    │ (None, 1024)      │    525,312 │ dropout[0][0]     │
├─────────────────────┼───────────────────┼────────────┼───────────────────┤
│ layer_normalizatio… │ (None, 1024)      │      2,048 │ dense_33[0][0]    │
│ (LayerNormalizatio… │                   │            │                   │
├─────────────────────┼───────────────────┼────────────┼───────────────────┤
│ dropout_1 (Dropout) │ (None, 1024)      │          0 │ layer_normalizat… │
├─────────────────────┼───────────────────┼────────────┼───────────────────┤
│ dense_34 (Dense)    │ (None, 512)       │    524,800 │ dropout_1[0][0]   │
├─────────────────────┼───────────────────┼────────────┼───────────────────┤
│ layer_normalizatio… │ (None, 512)       │      1,024 │ dense_34[0][0]    │
│ (LayerNormalizatio… │                   │            │                   │
├─────────────────────┼───────────────────┼────────────┼───────────────────┤
│ dropout_2 (Dropout) │ (None, 512)       │          0 │ layer_normalizat… │
├─────────────────────┼───────────────────┼────────────┼───────────────────┤
│ dense_35 (Dense)    │ (None, 128)       │     65,664 │ dropout_2[0][0]   │
├─────────────────────┼───────────────────┼────────────┼───────────────────┤
│ layer_normalizatio… │ (None, 128)       │        256 │ dense_35[0][0]    │
│ (LayerNormalizatio… │                   │            │                   │
├─────────────────────┼───────────────────┼────────────┼───────────────────┤
│ dropout_3 (Dropout) │ (None, 128)       │          0 │ layer_normalizat… │
├─────────────────────┼───────────────────┼────────────┼───────────────────┤
│ dense_36 (Dense)    │ (None, 64)        │      8,256 │ dropout_3[0][0]   │
├─────────────────────┼───────────────────┼────────────┼───────────────────┤
│ layer_normalizatio… │ (None, 64)        │        128 │ dense_36[0][0]    │
│ (LayerNormalizatio… │                   │            │                   │
├─────────────────────┼───────────────────┼────────────┼───────────────────┤
│ yield (Dense)       │ (None, 1)         │         65 │ layer_normalizat… │
└─────────────────────┴───────────────────┴────────────┴───────────────────┘
 Total params: 1,815,009 (6.92 MB)
 Trainable params: 1,811,169 (6.91 MB)
 Non-trainable params: 3,840 (15.00 KB)
Repetition: 1
Total samples: 2356
Chunk size: 1000
Number of chunks: 2
Split indices: [1000, 2356]
Processing training chunk 1...
Epoch 1/100
I0000 00:00:1742162158.639257   46570 cuda_dnn.cc:529] Loaded cuDNN version 90300
…
